dqn_satellite_model.pth (torch, 79031 bytes, 6 tensors)

fc1.weight f4 [128, 9]
000000 4a 6c 73 3d 27 e9 51 be 8a 64 e7 3c 83 83 1f be
       0.059429444 -0.20499097 0.028246183 -0.15577511
000010 8f b7 c5 bd fa 05 48 3e ee 21 b8 bd 52 1a 8f 3e
       -0.09654152 0.1953353 -0.089908466 0.27949768
000020 a0 69 e1 3c 80 09 5d bc a4 c0 f9 bd cc 41 32 3e
       0.027516186 -0.0134910345 -0.121949464 0.17407912
000030 34 99 d9 3d 82 4f 53 3e ba a8 c3 3d 28 37 f8 bd
       0.10624924 0.20635799 0.095536664 -0.12119895
000040 f6 94 a2 39 a9 57 2b be 16 bb 35 3e 0d b0 97 3e
       0.00031010032 -0.16732658 0.17747149 0.29626504
000050 fb b5 a8 be e1 fd 98 3e ce 8f c3 bd b3 6c 10 3e
       -0.3295134 0.29881194 -0.09548913 0.14103965
000060 43 9c 2e 3e 9d eb a0 3d e7 86 17 3e 0c 66 1c be
       0.17051797 0.0785744 0.14797555 -0.15273303
000070 78 e4 38 bd a2 e3 93 be 1c 2e 3c 3e 68 d3 42 be
       -0.04513976 -0.28884608 0.18376964 -0.19025958
000080 2a 13 66 3e 48 3c ec 3d e9 ee 45 bd ec fb 8a 3e
       0.22468248 0.11534935 -0.048323546 0.27145326
000090 0e f4 97 3e 5a 12 2c 3d 70 82 6a 3e b3 39 c4 3d
       0.29678386 0.04200969 0.2290132 0.09581318
0000a0 a9 97 fc 3d 47 24 30 3b bf f8 79 be 02 b1 98 bb
       0.123336144 0.0026877092 -0.24411295 -0.004659773
0000b0 28 59 74 be 3f a7 01 3d 01 4b 74 3e 5e 27 35 3e
       -0.23862135 0.03165364 0.23856737 0.17690799
0000c0 8a 04 3e 3e 34 18 9b 3e f3 d5 b1 3e ea 69 0f 3e
       0.18556419 0.30291903 0.34733543 0.14005247
0000d0 35 a5 84 be 91 72 99 3e 23 10 b2 3d ed a5 a0 3e
       -0.25907293 0.2997022 0.08694484 0.3137659
0000e0 67 c8 49 be 26 53 b0 bc 11 27 5a be 63 8c 90 be
       -0.19705354 -0.021524023 -0.21303965 -0.28232107
0000f0 cf 96 de bd 5c dd 1f 3e f8 51 28 3e 57 a9 41 be
       -0.10868608 0.15611786 0.16437519 -0.18912254
000100 a7 e5 99 bd 39 08 7f 3d 52 9f 5e be c8 1c 87 3e
       -0.07514506 0.0622637 -0.21740463 0.26389146
000110 ad a7 2f bd da 9d 5c 3e 9e 9e 5d be 4b 04 6f 3c
       -0.042884517 0.2154459 -0.21642539 0.014588426
000120 18 d7 f3 3d 5a 48 6a be 17 0e 9c 3d 46 bc 8e be
       0.1190626 -0.22879162 0.07619875 -0.27878016
000130 9e 6a 5e 3d de 8f 8a bc c8 81 e5 3d 65 92 96 3e
       0.054300897 -0.016914304 0.112063944 0.29408565
000140 b6 59 a4 3e d5 8a 65 3d 46 21 8b be 82 df e7 bb
       0.32099694 0.056040604 -0.27173823 -0.0070762048
000150 c2 a5 52 3e c6 b4 a2 3d a1 67 ca bd e8 ed 9f be
       0.20571044 0.07944636 -0.09883047 -0.31236196
000160 c1 02 80 be 04 88 8a be ba 26 7b 3c 62 c4 6b 3e
       -0.250021 -0.27056897 0.015329057 0.23024133
000170 d0 f4 03 3e 68 db 27 3e fa 18 82 be 0a 8a 14 be
       0.12886357 0.1639229 -0.2540968 -0.14505783
000180 02 05 9a 3e 27 e3 51 be 56 ca 82 be d5 c8 47 be
       0.30081946 -0.20496808 -0.25544995 -0.19510205
000190 78 a1 8c 3e 9e 12 47 bd 47 69 a4 3c 3a fb e9 bd
       0.2746694 -0.04860174 0.020069731 -0.11424871
0001a0 2d 5b af 3e 0b fb 67 3e 06 1c e3 bd 83 4d 1e 3e
       0.3424925 0.22654359 -0.110893294 0.15459256
0001b0 81 b0 d1 bc 94 56 37 be 5d 9c 94 be e4 ca 78 be
       -0.025596859 -0.1790412 -0.29025546 -0.24296147
0001c0 12 ce a3 3e d0 58 ba be e3 14 57 3e 9d e6 c4 bd
       0.31993157 -0.36395884 0.21004061 -0.096142985
0001d0 1b 27 81 be 06 92 03 be 7d 0c 77 3e 6f e2 8d 3e
       -0.25225148 -0.12848672 0.24125858 0.27711818
0001e0 c4 31 13 be 83 b9 94 bd 5a 4d 98 be e0 52 71 be
       -0.14374453 -0.07261946 -0.29746515 -0.2356677
0001f0 8a 0e 50 3e 9e 9c 93 3d c5 3a b8 3d 24 ef d4 bd
       0.20318046 0.07207607 0.089955844 -0.10397175
000200 81 e8 9c be 75 12 cc bd d8 5b 94 3e 5e 4a cb bd
       -0.30646136 -0.09964458 0.2897632 -0.09926294
000210 d8 e1 47 be a0 c1 d9 3d 85 dd f7 bd f2 8b 45 3e
       -0.19519746 0.10632634 -0.12102798 0.19291666
000220 54 46 5d bd ea 6d 36 3e dd aa 7d 3e d5 82 d9 3d
       -0.05402215 0.17815366 0.2477221 0.10620657
000230 54 79 4d 3e 46 0d 57 3c 82 45 78 3e 7d 26 4b bd
       0.20065814 0.013125723 0.24245265 -0.049597252
000240 35 7e 84 3e 9f da 7e 3e 38 4f 11 3d 6f b8 b9 3d
       0.25877538 0.24888085 0.03547594 0.09068381
000250 4e 95 97 3d 32 33 5c 3e 21 1a 29 3e 35 ea 63 3d
       0.074015245 0.21503904 0.16513874 0.05564328
000260 04 93 ad 3d 8d 4a f9 bd 61 98 9b 3d 42 a2 2c 3e
       0.08475307 -0.121724226 0.07597423 0.16858771
000270 36 6a 5c 3e 32 9c ad 3e f1 3d d1 3b a4 9c d0 3d
       0.21524891 0.3390823 0.006385558 0.10186127
000280 cb d4 d8 bd e9 86 e0 3d 25 f8 97 3d 2f 3e 91 be
       -0.10587462 0.10963232 0.07420377 -0.28367755
000290 8e ee 47 be f9 de 79 3e aa 43 e4 3e 4b 25 bf be
       -0.19524595 0.24401464 0.44582874 -0.3733314
0002a0 88 8d 84 be ed ad 00 3d bf 2f cc bd f9 f0 9b 3e
       -0.2588923 0.03141587 -0.09970044 0.30457285
0002b0 14 43 5a be a8 64 2e be 9b f7 11 be 0e 91 17 be
       -0.21314651 -0.17030585 -0.1425461 -0.14801428
0002c0 32 db 52 be e4 51 78 bd 77 a3 dd 3d c2 1d 47 be
       -0.20591429 -0.060624972 0.10822194 -0.19444945
0002d0 13 fc a4 3d d7 7b 97 be 2a c5 96 be 3e 65 f7 bc
       0.08055892 -0.2958667 -0.294473 -0.030199643
0002e0 36 de 36 3e f4 60 f2 bd 7d 16 db 3d de 7d a8 3e
       0.17858204 -0.118348986 0.10697649 0.3290853
0002f0 11 1c 89 be 09 83 8b bd 02 4a 56 3e 72 de 3f bc
       -0.26779225 -0.06812102 0.20926669 -0.01171075
000300 45 ae 98 be e1 3a 52 be ff cb 56 be 01 fd 26 be
       -0.29820457 -0.20530273 -0.20976256 -0.16307451
000310 c0 30 39 3d db 05 68 3e 90 19 25 be 22 6a 96 be
       0.045212507 0.22658484 -0.16123033 -0.29377848
000320 6b b9 36 be d6 e9 93 3e 55 6f e9 3c 78 0a 60 3e
       -0.17844169 0.2888934 0.02849547 0.21878994
000330 50 d7 94 be 2e b1 9a 3e 3e fa d7 3d 89 e6 47 3e
       -0.2907052 0.30213302 0.10545777 0.19521536
000340 c0 99 91 be ff 54 14 bd ab b6 5d be ba 68 8e bd
       -0.28437614 -0.03621387 -0.21651714 -0.06953569
000350 7e 75 fe 3d 1b f8 a0 be 72 c8 ff bc 64 df 81 be
       0.124247536 -0.3143929 -0.03122351 -0.25365746
000360 9a 91 e2 3d f4 3c c2 3d 35 45 bb bd e0 f3 eb bd
       0.110629275 0.09484282 -0.091440596 -0.11521125
000370 99 b9 91 be d7 8d ec bd f2 52 99 3e cb 68 9f 3d
       -0.28461912 -0.11550491 0.29946095 0.077836595
000380 f5 d3 8d 3e 86 af 00 be b4 a9 be bd 0d 62 15 bd
       0.27700773 -0.12566957 -0.09309712 -0.03647046
000390 16 ab 90 be 9b 17 4f be e7 3e cd 3d b7 c9 94 3e
       -0.28255528 -0.20223849 0.10021763 0.29060146
0003a0 89 8a 0c 3e 8c e4 84 bd e2 d8 fa 3d d4 29 94 be
       0.13724722 -0.06488904 0.12248398 -0.28938162
0003b0 4e c9 a8 bc 7e b2 26 be df 23 2f 3e 7e 3b d5 bd
       -0.020603802 -0.16279027 0.17103527 -0.10411738
0003c0 da 64 2c bd d3 ac 46 be a6 80 9a 3e 51 83 66 bd
       -0.042088367 -0.19401865 0.30176276 -0.056277577
0003d0 43 1c 8e 3e 07 48 ad 3d c7 c4 8b 3e 42 95 a1 3d
       0.27755937 0.08461004 0.27298567 0.07889797
0003e0 1e d8 7d be 59 a8 3d 3e 3a 7b a9 be 0f 54 59 3e
       -0.24789473 0.18521251 -0.33101827 0.21223472
0003f0 b8 45 33 be 43 c3 5b 3d 77 56 a0 3e b2 c5 1d be
       -0.17507064 0.053653013 0.31315967 -0.15407446

fc1.bias f4 [128]
000000 be 01 a7 be 4c ec 8b bd cc 7c 0e bd 32 99 a7 be
       -0.32618517 -0.068321794 -0.034786984 -0.32734066
000010 4d 7e a7 3e e2 6d 0d 3e 51 a4 43 3e f3 d0 16 be
       0.32713547 0.13811448 0.1910565 -0.14728145
000020 a3 fe f6 3d b5 58 1d bd a1 37 6c 3e de 94 18 be
       0.12060287 -0.038414676 0.23068096 -0.14900538
000030 cc eb 57 be c1 26 5b 3d 23 45 ef 3d 33 71 76 be
       -0.21086043 0.053503755 0.11683109 -0.2406662
000040 ed 32 d8 bd 11 52 c2 bd 8a a0 80 be 20 a6 12 be
       -0.10556588 -0.09488309 -0.25122482 -0.14321184
000050 52 a6 46 3e d1 51 a5 3e de e8 64 3e 78 89 28 be
       0.19399384 0.32288983 0.22354457 -0.1645869
000060 8f a7 1b bb 3f 31 a0 3e f7 61 17 bd 9d a6 61 be
       -0.0023750996 0.31287572 -0.03695866 -0.22036214
000070 e9 c3 95 be 20 16 5d be 53 e2 2d 3c d7 fc 8d 3e
       -0.2925103 -0.21590471 0.010613042 0.27731964
000080 1b 6f 65 3e ad 9e a8 be 9e 3c d2 bd 06 5a 36 3e
       0.22405665 -0.3293356 -0.10265468 0.17807779
000090 54 6f 26 3d e6 0d 86 3e b5 47 e6 3d f7 d7 88 3d
       0.040633515 0.2618248 0.11244146 0.06681817
0000a0 15 0c aa be 6d 84 c9 3d 4f f7 67 bd 4a 37 a4 bd
       -0.33212343 0.09839711 -0.056632336 -0.08018358
0000b0 2e 4b 8a be e6 7f 2f bd ae f4 9f bd c1 76 15 be
       -0.27010483 -0.042846583 -0.07810341 -0.14596082
0000c0 fe 84 3a be 55 ce 8a bc 21 68 2e be 58 e9 9b bb
       -0.18214795 -0.01694409 -0.1703191 -0.0047580414
0000d0 49 70 ab be 2a 06 99 3e 33 88 ca bd 38 6d 95 be
       -0.33484104 0.29887515 -0.09889259 -0.2918489
0000e0 a3 cf 9a 3e b9 f3 a8 be e0 f0 bf 3d 2e 50 2b 3e
       0.3023654 -0.32998446 0.09372115 0.16729805
0000f0 bd 35 30 be 3d af ea bd 23 60 ca bd dc 1d 7b 3e
       -0.17208 -0.11459205 -0.09881618 0.24523109
000100 00 1d 42 3d 3f b0 28 bd 20 8b 36 3e de c7 82 3e
       0.047390938 -0.041183706 0.1782651 0.25543112
000110 d9 e2 32 be 43 ec 8e 3d 6f ce 9a 3d 23 3c c6 bd
       -0.17469348 0.06978657 0.07558905 -0.09679439
000120 1f 5c de 3d 90 60 cb bd bf 82 85 3e e4 d5 6d 3e
       0.108574145 -0.09930527 0.26076314 0.23226124
000130 d8 0e b5 be 46 08 e2 3d e9 28 80 3e 9e 95 25 3e
       -0.35362887 0.11036734 0.25031212 0.16170356
000140 45 91 fb bc 94 3c 4b be b1 5d 34 be 36 17 ca 3d
       -0.030708918 -0.19847327 -0.17613865 0.098677084
000150 b2 ad 59 3e 8e 06 1c be dd d8 b9 3c 66 05 40 3d
       0.21257666 -0.15236875 0.022686416 0.04688015
000160 de 1b fc bd 57 cc 88 3e 17 22 5b 3e 47 60 eb 3d
       -0.12310003 0.267184 0.21399723 0.11492973
000170 10 14 77 3e de 6c ae bd 4d ef 7e be 34 37 7f be
       0.24128747 -0.085168585 -0.24895974 -0.24923402
000180 19 4b fd 3d f3 bd a0 3e f1 b6 a7 bb fb 12 0d be
       0.12367839 0.3139492 -0.005118244 -0.13776772
000190 5c b1 aa be 8d 03 48 3d b4 5b 24 3e e3 de 7d 3e
       -0.3333844 0.04883151 0.16050607 0.24792056
0001a0 1d 52 b5 be 14 c6 91 3e 33 e7 08 be 09 47 1c be
       -0.3541421 0.28471434 -0.13369446 -0.15261473
0001b0 07 e5 96 be 0d 58 c1 be 31 bc e1 3d af 6b 12 be
       -0.2947161 -0.3776249 0.11022223 -0.1429889
0001c0 e2 9c 89 be 1f 94 55 be ef a2 a1 3e bb df 6a 3e
       -0.26877505 -0.20857285 0.3156962 0.22936909
0001d0 30 1e 16 be 4f 46 01 be 9d fc 8a 3d 4d 06 2f be
       -0.14659953 -0.12624477 0.067864634 -0.17092247
0001e0 92 43 c5 3d 53 dd aa bc 91 64 55 be 16 ec 27 3e
       0.09632029 -0.020857489 -0.20839144 0.16398653
0001f0 a2 78 21 3e e4 21 96 3c 31 0b 8c be c3 63 7c 3e
       0.15768674 0.018326707 -0.27352288 0.24647431

fc2.weight f4 [128, 128]
000000 0e 9f bc 3c cb 7b e4 bb 11 4c 1f 3d 17 e9 93 bd
       0.023025062 -0.006972765 0.038890902 -0.07222193
000010 88 48 4d bd ce 1f 21 3b 14 d9 6a bd af 0f 8e bd
       -0.050118 0.0024585607 -0.057335928 -0.06936585
000020 84 cb 9e bd 36 52 4b 3c 47 df 4e bd 93 90 7a bd
       -0.07753661 0.012409737 -0.050505903 -0.061173033
000030 c3 b5 d9 bc e0 0c 99 3d 10 3f 03 be 43 fb 8f bc
       -0.026575929 0.07473159 -0.12817025 -0.017575866
000040 35 f5 50 3d 34 bd 5c 3d ca e3 2a 3b e8 73 66 3d
       0.051015098 0.053891376 0.0026075714 0.05626288
000050 3d d8 03 3d 22 e8 c5 bd be 4c 35 3c 28 2e 5f 3c
       0.032188643 -0.096634164 0.01106566 0.013621844
000060 09 40 4b bb 2b 3a 4b 3d be b0 87 3d fb 15 4e 3d
       -0.003101351 0.04961602 0.06625508 0.05031393
000070 d5 ee 2d bd 4b 66 87 3c b0 d2 b1 bb 49 55 a5 3c
       -0.042464096 0.01652827 -0.0054267272 0.020182269
000080 ba 3f 26 bd 7f 19 34 bd 6e 0d 4c 3d 20 b1 2b bd
       -0.040588118 -0.043969627 0.049817495 -0.041916966
000090 f1 7e 83 3d 5e 56 38 bd 71 50 cb bd cb 8b b4 bd
       0.064206965 -0.04500424 -0.09927452 -0.08815726
0000a0 e0 14 2e bd 18 a0 84 3d f2 ae 9c bd 8a 4a 69 38
       -0.042500377 0.06475848 -0.07650556 5.562095e-05
0000b0 68 fe 63 bd 51 e6 6a bd 88 df 3f 3d 81 e2 99 bd
       -0.055662543 -0.057348553 0.046844035 -0.07513905
0000c0 87 99 9d bd b6 c9 5c bd de 7d a4 3d ea 50 30 3d
       -0.07695299 -0.053903304 0.0803182 0.043045916
0000d0 68 47 ad bd 2c c8 9b 3c c2 70 da bb 2b 36 b7 3d
       -0.08460885 0.019016348 -0.006666274 0.089458786
0000e0 22 1a 68 bd 52 b8 2b bd b2 0a 7c bd b5 ef e3 3b
       -0.056665547 -0.04192383 -0.061533637 0.0069560655
0000f0 c2 57 87 bd 80 a6 10 3d 18 e2 09 3d fd 84 92 bd
       -0.06608535 0.035315037 0.033662885 -0.07154272
000100 28 5a 16 be 87 d0 21 bd 2e 43 9b 3d c0 f0 3e 3a
       -0.1468283 -0.039505508 0.07581173 0.00072837994
000110 83 ef 6c bd 6b 0f 22 bd 87 d6 62 3d a8 ca a0 bc
       -0.057845604 -0.039565485 0.05538037 -0.019627884
000120 62 22 85 3d 2e d4 f6 bb b5 02 ec bc 62 87 67 bd
       0.065006986 -0.007532618 -0.028809885 -0.056525595
000130 f7 ae 29 bb 2b 6b 68 3c fc 45 c2 bd 81 64 09 3c
       -0.002589164 0.014185707 -0.09486005 0.008385778
000140 fa 28 33 bd d6 ca a3 3d 46 2a 6d bd 77 24 12 3d
       -0.04374025 0.07997672 -0.057901643 0.035679307
000150 07 2c 95 bc a0 52 6c 3d 65 a0 47 bd 44 14 19 bd
       -0.01820947 0.057695985 -0.04873695 -0.037372842
000160 69 d8 a4 3d 00 6b dc bd 5c b5 5f 3d 5b d0 0d 3d
       0.080490895 -0.10762596 0.054616317 0.03462253
000170 1b d8 80 bd 90 90 83 3c af 92 86 bb 12 b5 d8 3c
       -0.06291219 0.016060144 -0.0041068415 0.026453529
000180 2d de f2 bd 0d 9c 68 3c f9 04 04 bd 4d f3 97 3b
       -0.11858783 0.014197362 -0.032231305 0.004637158
000190 59 91 3d 3c 97 04 5d 3c 97 ad 01 3c ca 37 cd 3c
       0.011570298 0.013489864 0.007914922 0.025051016
0001a0 2d 52 12 bc 62 5b 83 bb b0 04 8e 3d 56 7e 32 3d
       -0.008930725 -0.0040086964 0.06934488 0.043577515
0001b0 fb 42 53 bd 8c b2 2d 3d dc 02 37 bd 1f f0 9f bd
       -0.05157755 0.042406604 -0.04468046 -0.07809471
0001c0 ea fd 26 bc 20 f7 32 bc e0 5b 4b 3d d0 13 90 bd
       -0.010192374 -0.010923177 0.049648166 -0.07035029
0001d0 31 fa 45 bd e3 3f 56 3d 5b ef b9 bd e4 d5 3f bd
       -0.048334304 0.05230702 -0.090788566 -0.04683484
0001e0 2a 70 4d bb 71 ae 9a bd dc c8 9b bd 0c d6 7a bd
       -0.0031347373 -0.07552803 -0.0760667 -0.061239287
0001f0 e0 47 bc 3c b7 90 d6 bd 15 5b b9 bd 19 ec be bc
       0.022983491 -0.10476821 -0.09050576 -0.02330594
000200 ac d3 84 3d 0f 0c ea bb 9c 0c a3 3d 95 9e 44 bd
       0.06485686 -0.007142551 0.079613894 -0.048002798
000210 7c 18 e4 bc 86 50 88 3c 0a 0f 1c bd a4 c4 2b bd
       -0.027843706 0.016639959 -0.03810028 -0.041935578
000220 68 24 81 bd 3a 85 0c 3d b2 fd 81 3d 14 07 30 3d
       -0.06305772 0.034306742 0.06347217 0.0429755
000230 3b e8 c8 ba 97 d5 f3 3c a8 e2 40 3d 7b 36 b6 bc
       -0.0015327999 0.029764934 0.047091156 -0.022242775
000240 b9 2d 86 3d ee 65 cd 3b 3a a2 c2 bd f8 fa b6 3c
       0.0655169 0.0062682545 -0.095035985 0.022336468
000250 a2 62 a8 bd 3b 73 23 bd ec a7 16 bd 7d 80 95 bd
       -0.08221938 -0.039904814 -0.036781237 -0.07299898
000260 53 39 e1 3b 9c 1d 65 3c e3 96 42 3d 76 4f 5a bd
       0.0068732887 0.01398411 0.047507178 -0.053298436
000270 a9 ea d5 3c fc fc c7 3c 17 11 7b bd df 35 66 3d
       0.026112871 0.024412625 -0.061295595 0.05620372
000280 ce 3d 24 3d 9d 04 fb bc d9 45 a0 3d 9c 55 57 3b
       0.040098004 -0.030641848 0.078258224 0.0032857424
000290 0d 27 86 3c 65 0c c3 3c 4f d9 ae bd 19 28 bb bd
       0.016376043 0.023809621 -0.08537542 -0.091385074
0002a0 00 a0 73 3c 51 3d 14 3d 7e 1a 7c bd 4c f4 8f bd
       0.01486969 0.03619129 -0.061548702 -0.07029018
0002b0 c5 30 1b bc 37 6f 48 3d 4c 60 50 3c 59 e2 56 3d
       -0.009472077 0.048934188 0.012718271 0.052461956
0002c0 68 f4 b7 bb 8f 9f c7 bd 91 be 7e 3d be c0 77 bc
       -0.0056138523 -0.0974723 0.062193457 -0.015121637
0002d0 c2 a4 65 3d 09 ec 91 3d bb 30 75 3d af 1a 0a bd
       0.05606533 0.07125098 0.059860926 -0.033716854
0002e0 ce 67 7e 3d c5 14 72 bd f5 98 07 bd ee c7 c4 bd
       0.062110715 -0.05910184 -0.033104856 -0.09608446
0002f0 b9 87 3d bd 5d 7c 9b 3d 53 27 a4 bd d7 4e ea bc
       -0.046272013 0.0759208 -0.08015313 -0.028602047
000300 cc 49 96 bd b3 4b 7d bb ae 3f 90 3d e5 eb 71 bd
       -0.073382944 -0.0038649857 0.07043396 -0.059062857
000310 d0 2f 59 bc 55 66 88 3d 3f e8 54 3d 4a 2e 8d 3d
       -0.013256028 0.06660143 0.0519793 0.068935946
000320 3b 68 41 bd c8 af a4 bd 45 00 1f 3c 3b 0f 7f bd
       -0.047218543 -0.0804134 0.009704654 -0.062270384
000330 63 a8 93 3c f2 1a 5a 3d be db bb bb cc 37 ab bd
       0.018024629 0.053248353 -0.0057329824 -0.08360252
000340 14 18 96 bd bb b6 40 bd 91 d7 a1 bc 7b 02 d8 bc
       -0.07328811 -0.047049265 -0.01975611 -0.02636837
000350 dd 54 26 bd d5 62 0f bb 54 ca e0 bc 10 8f 14 bd
       -0.040608276 -0.0021878977 -0.027440228 -0.036269248
000360 d4 80 35 3b d5 66 88 3d 55 3f 9a 3d d7 64 80 bd
       0.0027695196 0.06660239 0.07531611 -0.06269234
000370 02 ca f8 3c 53 29 a9 bb 06 09 ba bd 5e 5d ea 3b
       0.030369762 -0.005162397 -0.09083752 0.0071522435
000380 fd 3a 16 bd f1 d8 b5 bd 68 86 ac 3d 66 c1 8b bd
       -0.03667735 -0.08879269 0.084240735 -0.06823997
000390 29 93 33 bd 40 dd bf bd aa 5d 1a 3c a9 35 87 ba
       -0.043841515 -0.09368372 0.009421745 -0.0010315675
0003a0 6f e8 9e 3c ae 71 2b bd 6e ea 94 bd af c0 6e 3d
       0.019397942 -0.04185646 -0.072712764 0.058289226
0003b0 ea 76 56 bd 4b 32 66 3d 4a 7d a2 bc b4 6d c9 bd
       -0.0523595 0.056200307 -0.019835133 -0.09835377
0003c0 22 d9 4b 3d c7 c3 a0 bd ab 21 94 bd fc 37 98 3d
       0.04976762 -0.078498416 -0.07232984 0.07432553
0003d0 17 6c 87 bd 3c b2 34 bd 67 f0 4a bd c6 98 8f bd
       -0.066124134 -0.04411529 -0.04954567 -0.07011561
0003e0 28 94 11 bd 3c 77 e9 bc 2c 4e 79 bd dc f9 c3 bc
       -0.035541683 -0.028499238 -0.060865566 -0.023922853
0003f0 51 10 33 bd 85 0d 0f bd bc 65 8c bc 19 c1 59 bd
       -0.043716732 -0.034925003 -0.017138354 -0.053162668

fc2.bias f4 [128]
000000 ce d8 bc 3c b9 e6 93 bd 99 68 8a bd 3b 1d b1 bc
       0.0230526 -0.07221741 -0.06758232 -0.021620383
000010 b4 55 f2 bc c3 27 81 bd f5 39 58 bb 0a 1c 61 bd
       -0.029581882 -0.06306412 -0.003299353 -0.05495838
000020 ff 64 9a bd fc 84 42 3c 46 60 92 3d a1 15 1f 3d
       -0.07538795 0.011872526 0.07147269 0.038838986
000030 97 ed 55 bd 02 c6 c0 bc 30 49 13 bd 8a d4 71 bb
       -0.052228536 -0.023531917 -0.03595847 -0.0036900365
000040 a4 86 7a 3d bd e3 4b 3d a2 0e 65 3d 25 15 77 3d
       0.06116356 0.049777735 0.055922158 0.0603229
000050 de 56 39 3d 95 b5 28 bd 1c df f6 bc c6 44 97 3d
       0.04524886 -0.041188795 -0.030135684 0.07386164
000060 b4 4e 95 bd 13 12 bf 3c c6 7e 7b bd 0b a4 98 3c
       -0.07290402 0.023324048 -0.061400197 0.01863291
000070 f3 4a dd bc dd 6e 9d 3d 2f 94 72 bc df 51 0b 3d
       -0.027013278 0.07687161 -0.014805838 0.034013625
000080 39 f0 0a bd 7b 94 eb 3b 04 66 88 bd b7 37 64 bc
       -0.0339205 0.007189331 -0.06660083 -0.013929299
000090 6f e9 1b 3d db cc 7d 3d f5 c9 89 3d d0 4c a2 bd
       0.038064416 0.061962944 0.06727973 -0.07924807
0000a0 5b 6e 97 bd 55 d8 15 3b 86 42 f9 bc 70 08 94 bd
       -0.073940955 0.002286454 -0.030427229 -0.07228172
0000b0 83 ce 0b bd 22 92 86 bd bb 24 ba bd ca 92 9d bd
       -0.03413249 -0.06570841 -0.09089037 -0.076940134
0000c0 47 47 c4 bd 07 07 fa 3b 41 14 f3 3c cf 79 25 3c
       -0.095839076 0.0076302323 0.029672744 0.010099842
0000d0 12 c1 37 bd f2 a5 57 bc ed 4f 87 3b f0 5a 45 3d
       -0.04486186 -0.013162123 0.004129401 0.048182428
0000e0 67 f8 5f bd b0 8b ac bd bc a7 0c bb af 53 b5 bd
       -0.054680254 -0.08425081 -0.0021462282 -0.08853852
0000f0 d4 9f 26 bd ae db e0 bd f3 97 be bd 9b b2 70 3c
       -0.040679768 -0.109794006 -0.09306326 0.01469102
000100 4b eb ad bd 77 df ac bd 3f e5 b5 bd ab b6 bd bc
       -0.08492144 -0.0844106 -0.08881616 -0.023158392
000110 88 56 50 3c d0 d4 74 3d 67 d5 ff bc b2 d2 11 3d
       0.012715943 0.059773266 -0.031229688 0.035601325
000120 6e df b5 bd 99 f7 61 bd 99 2a 39 3d 5c cb 1e 3d
       -0.088805065 -0.05516777 0.04520664 0.038768157
000130 4a 21 3d bc bb a1 8e bc 00 e1 8c 3d e6 b9 7f bd
       -0.011543581 -0.017411103 0.06878853 -0.062433146
000140 3f 1f 5c bd 9c 5c 30 3d 68 1f a9 bd c4 c5 6e bd
       -0.053740736 0.04305707 -0.082579434 -0.058294073
000150 5a 77 06 3b 6e 01 59 3d 20 e0 c7 bd 72 bf bd 3c
       0.0020517916 0.05297988 -0.09759545 0.023162577
000160 72 96 e7 bc 12 65 b3 bd b0 53 be bc 60 fe 76 bd
       -0.02826998 -0.08759512 -0.023233265 -0.060301185
000170 db 80 10 3d 4e 1a 1c bd 2e 42 0d bd 2e bd 8c bc
       0.035279136 -0.038111024 -0.034486942 -0.017180052
000180 b1 8c d4 3a cc 27 7d bd f6 92 91 3d 76 f1 55 bd
       0.0016216246 -0.06180553 0.07108109 -0.05223223
000190 63 97 a8 3d dc 53 02 3d 99 9f 95 bc d4 91 94 bd
       0.08232 0.031818256 -0.018264579 -0.07254377
0001a0 ea c6 f5 3c 71 a8 af bd 47 15 58 3d f4 22 85 3d
       0.030002076 -0.085770495 0.052754667 0.065008074
0001b0 b7 fb a4 bd 49 a2 8f bd 70 40 8a 3c 7f 18 8c 3d
       -0.08055823 -0.07013375 0.01687643 0.0684061
0001c0 ea dc 49 bb b4 fe fa bb 87 c9 a6 3d 1e 53 59 3d
       -0.003080184 -0.0076597575 0.08143907 0.053057782
0001d0 5d af 8d 3d ef 6a 5c bd fb 01 d2 3c 12 84 9f bb
       0.069182135 -0.053812917 0.02563571 -0.004868039
0001e0 18 7e 7f 3c fe 0c 40 3d ed 10 6b 3c 04 77 76 bd
       0.015594028 0.04688739 0.014347297 -0.060172096
0001f0 ed ff 5c 3c 33 25 4a ba 08 54 c3 3c ed a3 8d 3d
       0.013488752 -0.00077112316 0.02384378 0.06916032

fc3.weight f4 [11, 128]
000000 38 83 92 3d 19 12 9c bd 00 e1 12 3b 83 2e 68 3c
       0.07153934 -0.07620639 0.0022411942 0.0141712455
000010 b5 5f 36 bd c1 06 fa 3c 10 31 1c 3d 02 0c 62 bc
       -0.044524867 0.030520799 0.038132727 -0.013796808
000020 21 78 ff ba 4b 68 23 bd 1a aa 75 3d 66 85 5e 3d
       -0.0019490757 -0.039894383 0.059976675 0.054326437
000030 f8 08 62 bd 25 11 9f 3c ef 6e 97 bd 0c c5 43 bd
       -0.055184335 0.019417355 -0.07394206 -0.04779534
000040 88 1f 71 bd 0f 12 60 3d 64 1b 51 bc 1b 51 8b bd
       -0.05886796 0.054704722 -0.012762878 -0.06802579
000050 eb 9f 75 3d c3 1f 3d 3d 4f b2 87 3d e0 2d 84 bd
       0.059966963 0.04617287 0.066258065 -0.064540625
000060 af 33 1b 3d fe 3f 97 bd 67 81 47 3d 7f 54 1f 3d
       0.037891086 -0.073852524 0.048707392 0.03889894
000070 61 52 8b 3d db 1f b9 bc 3b bb 5f bd 36 d6 8a bc
       0.06802822 -0.022598198 -0.054621916 -0.016947847
000080 3d 90 f6 3c 82 2d 27 3d da 09 8b bc 2a f7 52 3d
       0.030098075 0.040814884 -0.016972471 0.051505245
000090 3e e5 a0 bd d3 61 f0 3c 3d b4 8d bc d8 56 38 bd
       -0.078562245 0.029343521 -0.017297858 -0.045004696
0000a0 7f 25 e7 3c fe cf 53 3d 64 ef 29 3d 9e 86 1a bd
       0.028216122 0.05171203 0.041488066 -0.037726037
0000b0 94 3f 71 3d 2a dc f1 bc 1f 15 2d 3d f8 3e af 3d
       0.058898523 -0.029523928 0.04225647 0.08556932
0000c0 ae 77 5e 3d 96 a6 68 bd b0 94 b5 3c 23 7c d2 3c
       0.054313354 -0.056799494 0.022165626 0.025693959
0000d0 de 1f 4a bc 91 2e 10 bb 2c 37 8f 3d 0e 97 05 3d
       -0.012336699 -0.0022000412 0.06992945 0.03261476
0000e0 61 24 f9 bc 6b 18 a5 3a 0b 9a f5 ba 0c ee 4d 3d
       -0.030412855 0.0012595778 -0.0018737925 0.050275847
0000f0 be 9a 92 3d 02 e1 2e bc 7b 31 7d 3d b3 f2 89 3d
       0.07158421 -0.010673763 0.061814766 0.06735744
000100 7f b5 0f bc c8 da fb 3c 80 29 31 bd fe 38 c0 3c
       -0.008771299 0.030743971 -0.043252468 0.023464676
000110 f1 86 04 3d e0 d8 25 3d c6 ca be bb 35 1a 74 3d
       0.032355253 0.04049003 -0.0058225123 0.059595305
000120 57 68 80 bd c9 9c 2a 39 9b 70 5c 3d 4d 3d dd bc
       -0.06269901 0.0001627087 0.053818326 -0.02700677
000130 4e 3f 16 3b 8a 18 b9 bd 98 58 38 bd 2a 6f 82 bd
       0.0022925916 -0.090378836 -0.045006365 -0.06368859
000140 00 36 26 3d 90 d3 2f 3d 97 fe 8a 3d e5 20 80 3d
       0.040578842 0.04292637 0.067868404 0.06256274
000150 2d 8f 04 bd b6 1d 39 3d 46 ca 83 3c e7 85 55 3d
       -0.032363106 0.04519435 0.016087662 0.052129652
000160 98 1d 01 bd 63 be 33 bd a7 42 29 bd 51 ad 9c bc
       -0.031522363 -0.04388274 -0.04132333 -0.019125612
000170 8e b7 b6 3c cf db 09 bd 58 f6 ec bc 3f c3 43 bc
       0.022304323 -0.03365689 -0.02892606 -0.011948406
000180 7b 65 a1 3d dc 60 5f bd f8 e0 28 3c 3a 15 0c bd
       0.07880684 -0.05453573 0.010307543 -0.03419993
000190 5a 92 78 bc 4b b9 86 bd 35 32 da 3b 0c d0 8a bd
       -0.015171612 -0.065783106 0.006658817 -0.06777963
0001a0 1c d9 06 bd 88 c6 7d bd 5b ba 70 3c 68 31 49 3d
       -0.032921895 -0.061956912 0.014692868 0.049119383
0001b0 1a 43 5f 3d 09 7e 03 3d a6 8e 2c bd fb 6a 5f bd
       0.054507352 0.03210262 -0.042128228 -0.054545384
0001c0 c2 73 c7 bd 8a f2 5f 3c da 8a 1b 3d 20 a9 80 bc
       -0.09738876 0.013668666 0.037974216 -0.015705645
0001d0 56 f1 5e bc 2c 03 76 3d 49 3c 81 bd b6 2e 8c bd
       -0.013607344 0.06006162 -0.063103266 -0.06844847
0001e0 3d b3 62 3d 78 f5 75 3c 2c 4f 89 3d 5f 9b 00 bd
       0.055346716 0.015012138 0.06704554 -0.031398173
0001f0 90 8a 6f 3d 27 66 08 3d 0f 75 62 bd dc 2a 41 bd
       0.058481753 0.033300545 -0.055287417 -0.047160015
000200 6f 8b fc bc 07 10 0c bd 3f 2f ae 3d 6d 95 ad 3d
       -0.030828206 -0.034194972 0.08505105 0.08475766
000210 87 21 0b bd eb 59 bb 3d 3f c8 33 bd 9f 8f 3f 3c
       -0.03396752 0.0914801 -0.04389214 0.011691957
000220 d4 a4 ef bc ce 68 ba 3c b1 84 7f bd c9 c8 91 3d
       -0.0292534 0.022755053 -0.062382404 0.07118375
000230 ac 72 e6 3c a9 2e 88 3d 50 7b 70 bd a5 ea 8c 3c
       0.028130852 0.06649525 -0.05871135 0.017201731
000240 27 d0 20 bd 15 a1 00 bd 91 00 86 3d ef 70 7c 3c
       -0.03926101 -0.03140362 0.06543077 0.015407785
000250 6b 9a bb bc fa 8b 82 3d 14 80 5b 3d b8 2e 77 bc
       -0.02290078 0.06374355 0.05358894 -0.015086822
000260 b6 7c df 3c dc 60 80 bd fe 3e 43 bc 9e 52 b2 3c
       0.027281146 -0.062684745 -0.011916874 0.02176791
000270 35 81 3b bd 30 fa 33 3d 65 3b 8c 3d 67 2d 93 bd
       -0.04577752 0.04393977 0.06847266 -0.07186394
000280 a6 fc cc bc 28 0c 8a 3d 6f 04 75 3d 48 3e 42 3d
       -0.025022816 0.067406 0.05981868 0.047422677
000290 ba b3 44 bd 17 06 69 3d a1 f0 26 bd 9d be 41 3d
       -0.048022963 0.056890573 -0.040756825 0.047300924
0002a0 93 c1 1b bc 7f 41 07 3c c3 bc 03 bd b0 42 a3 bd
       -0.009506601 0.008255362 -0.03216244 -0.07971704
0002b0 59 45 ad bd 7f fc 4b bd 30 cf c1 3c e1 c6 9e bd
       -0.08460493 -0.049801346 0.023658365 -0.07752777
0002c0 cc f3 4f 3d ca 18 7b 3d 93 eb 9a bd e4 d9 8f bc
       0.050769612 0.061302938 -0.075644635 -0.017559953
0002d0 b7 9c 09 bd 87 3d 4a bd 09 36 1f 3d f2 29 b0 3d
       -0.03359672 -0.049375083 0.03886989 0.086017504
0002e0 c5 bf 38 3d 64 27 1f 3d 2c 19 62 bd 20 11 b3 bd
       0.04510476 0.038855925 -0.055199787 -0.08743501
0002f0 23 02 75 3c f6 8d 85 3d cb b9 92 3d 3b d6 08 bc
       0.014954123 0.065212175 0.071643434 -0.008351858
000300 1a 37 d7 bc ac 1d 91 3d d8 a1 2e 3d 00 58 d2 3c
       -0.026271392 0.070857376 0.042634815 0.025676727
000310 77 d7 b2 bc 03 d7 a0 bd 6e 8c 12 3c 59 eb 9e 3d
       -0.021831257 -0.0785351 0.008944614 0.07759733
000320 83 f9 23 bb 06 2f 55 3d 95 d7 62 3c 63 df 20 3b
       -0.0025020547 0.0520468 0.013845344 0.0024547211
000330 63 aa fc bc a6 08 82 3d 1d 09 87 bd bd c5 2f 3d
       -0.030842965 0.06349306 -0.06593535 0.042913187
000340 11 06 82 3d 25 29 09 3c f1 2b 84 3c 9a 49 8a bd
       0.06348813 0.008371626 0.016134234 -0.0675232
000350 a2 a0 1a 3c 28 b3 f0 bc c0 27 a7 bd 57 8b b8 3c
       0.009437712 -0.029382303 -0.081618786 0.02252738
000360 f9 6f 4d 3d a2 6d a0 3d 22 15 7d bc fc 2b 4a 3d
       0.050155614 0.07833411 -0.015446933 0.049358353
000370 70 1b d8 3c e9 69 d8 3c 13 c1 f5 3c a7 23 c9 bc
       0.02638027 0.02641769 0.029999292 -0.024553133
000380 08 01 8c bd 39 bf b2 3d d5 3e de bc e7 a5 20 3d
       -0.06836134 0.08727879 -0.02712957 0.039220717
000390 97 e9 ea bc 72 89 3d bd 69 c8 f6 bc d8 51 b4 3c
       -0.028675837 -0.046273656 -0.03012486 0.022011682
0003a0 1e a0 12 bd 7b d4 03 3c 78 c1 74 3d 7a 3c 83 bd
       -0.03579723 0.008046265 0.05975482 -0.06408019
0003b0 88 ea fe 3c d7 62 0c bd c6 00 8b bc 1f be 8a 3d
       0.031117693 -0.03427395 -0.016968142 0.06774544
0003c0 51 9f d8 ba 03 7c 3d 3d 52 83 be bc df 40 34 3d
       -0.0016526972 0.046260845 -0.023255978 0.04400718
0003d0 da 7d 81 3c e0 4a cc 3c 87 8a c3 bc ef df 97 bd
       0.015807081 0.024938047 -0.023869766 -0.07415759
0003e0 c8 39 10 bd 86 46 97 3c 6b a8 f6 3c d8 08 73 3d
       -0.035211354 0.018466245 0.030109605 0.059334606
0003f0 c8 0d 8c bb dc c7 8d 3d 63 69 8a 3d cc 20 92 bb
       -0.004274104 0.06922886 0.06758382 -0.004459476

fc3.bias f4 [11]
000000 6f f6 8e 3b 01 1c 36 3d e4 99 55 bd 84 eb 7a 3d
       0.0043628733 0.0444603 -0.052148715 0.06125976
000010 0c 9d 64 bd 6d 2b 80 3c 83 e1 01 3f 5f 5a 59 bd
       -0.055813834 0.015645707 0.5073473 -0.0530647
000020 05 e4 db 3c a9 78 82 bd e6 d9 ea 3c
       0.026842127 -0.0637067 0.028668355
