dqn_satellite_model.pth (torch, 79031 bytes, 6 tensors)

fc1.weight f4 [128, 9]
00000000: 044b f1bc ef63 483e c6f8 1cbe 83b2 f9bd
00000010: e292 40bb 679c 06be 9890 b9bd 0e90 46be
00000020: 8c64 73be c331 563e 465e 123e 7c15 5e3e
00000030: b972 6b3e 0c5c 9bbe 0778 24be 9382 2a3d
00000040: ec6f d8bd 6322 953e a5ce a2be 67da 953e
00000050: 0ab8 303c 58e2 e9bc 1c18 793e 56a5 7d3e
00000060: d80f 72be 6c96 69be 5ac2 b6bd 423d 313d
00000070: ffdb cd3d ce03 563d bd22 da3d 76e4 8b3d
00000080: cd15 ac3e 2de9 73be ffe0 0d3e 50e4 53be
00000090: 42e0 a13e 8e88 97be c74e 8d3d 86fe 4b3d
000000a0: 8a56 473e 971d 263e 3771 edbc 2eeb cd3d
000000b0: 2362 4f3e e8bf 8cbe 9bf9 90bc 34da 53be
000000c0: f3f8 b4bd e75f 793e 327f 353e 775f 06be
000000d0: e30a 4ebe fcd7 073d 7e75 a2be 496f 59bd
000000e0: bc6e dbbd 19e4 80bd 9e1a ed3d 94e4 243e
000000f0: 7bf2 923e ceca c0bd 58a7 0cbd 0971 87be
00000100: cb6f 97be 5d9a 573e 93f6 9b3e f93c 813d
00000110: ea05 dcbe 4ebf 483e d96d 8abe 12c8 9ebe
00000120: 1119 95be 87c2 1e3d f6bc 2c3e f768 973e
00000130: f7aa 94be 5e6e 6c3e 7c75 a23e b497 293e
00000140: f9e2 b9bd 8a3d c33c f8d3 8c3d 3ed8 9cbe
00000150: a06e 14be 5423 20be 3c47 4ebe e478 a6bd
00000160: 1c9b aa3e 452f 943e 73d8 5c3e 52c6 193e
00000170: 6236 f83d 67c4 babd a9cb c9bc c003 6a3e
00000180: eb24 d03d c714 d63d f371 383e d593 3cbd
00000190: 8090 8c3d 5230 62be 47ad 403e 6e19 4dbe
000001a0: 92ed 0d3f c1bf 94be 15ca d13d 843f 30be
000001b0: 4608 46be 357f 7a3e 08c6 efbd 9ad1 c23d
000001c0: 584e 793e 8837 d83d b586 403e 8efb 42be
000001d0: deba 6cbe 065d 68be 694e dabc de8c 90bd
000001e0: 0c2b c3bd c96f a7be 6be6 13bd dee0 1dbc
000001f0: 7440 ad3e 3321 a13e 1dd2 a0be 47b5 fa3d
00000200: f64a 09be f5fe 5b3d 0a17 ba3d 97f5 a63d
00000210: 23ef 9f3e d5ea a7be 5fb5 153e 5880 103e
00000220: f4e4 813d 813c 26be 4af2 7d3e 90f5 a23e
00000230: d376 8b3e bbac cfbd 0818 92bd 4ff4 363e
00000240: 9968 54be 9466 5e3e 799b 0abe df29 94bc
00000250: 3aa1 0dbe 8bff 7c3e 1f9a dc3c aa76 253d
00000260: e9c6 ab3d 1dbe 313e cb5f 8cbe 1a3b 1f3e
00000270: 5124 873c 752f 383d 538d 963e 7e5c 213d
00000280: 8b44 a83e e877 0d3e 89dd 8c3e 084b a1bd
00000290: a81e b03c 7af0 f3bd 3792 47be 54c9 01be
000002a0: c1d0 86be f314 d8bd 2e45 1c3c 9bbb 31be
000002b0: 615b 3bbe cf56 9b3d e814 ecba 4e21 8e3e
000002c0: 75cb 3bbe f29e a43e 4cec 76bd 3c7d 48bc
000002d0: 90b5 2abe a1ae 98be 8395 303d 98ce a3bd
000002e0: 6a64 b4bd fff1 5abe d042 21be 46eb 723e
000002f0: 7fa1 94be d3a9 a93d 0d0f 853c ff38 9fbd
00000300: 566d a6be 5142 0bbe e1a8 16be 5b0f a6be
00000310: b76a 493e 4050 093e d50f 42be 3601 c33d
00000320: 23f3 8dbd 2c3e a53e 3d6b 88be 52be f8bd
00000330: b1fc 663e 96f7 483e 68d4 423e a667 62be
00000340: 7728 0b3e 4114 85bd 1583 a03e 77fe 973d
00000350: 745f 403e 6816 11be 427f f53d 76eb 46be
00000360: 6843 c63d aac7 d7bc 9918 48be 1394 983e
00000370: a2a4 98be 1b89 cdbd af20 043e c0c9 71be
00000380: 359c 6a3e 0cfd ebbd d5bc 893e 40e6 fbbd
00000390: 8388 3f3e 5aa0 953e d6b4 c63e 34e1 66be
000003a0: 0fca 983e a1a4 633e ab6e a43e 3983 76be
000003b0: caa1 9a3e d671 2ebe b0f2 31be 3aa2 0f3e
000003c0: d129 8d3e d08d 5f3e b6ca 443e fab2 25be
000003d0: a97c 933e 2711 ba3c bb3e 24be fdb3 5cbc
000003e0: 7384 773e 5f69 53be d4b2 853e 604c 133d
000003f0: c718 833d 378d da3d 1865 96be 6d53 bd3d
-0.029454716 0.19569372 -0.15329275 -0.121922515 -0.0029384424 -0.131456 -0.09060782 -0.1939089
-0.23768824 0.2091742 0.14293775 0.21687883 0.22992982 -0.30343664 -0.16061412 0.04162843
-0.105682224 0.29127797 -0.31798282 0.2926819 0.010786066 -0.028550312 0.24325603 0.24770102
-0.23638856 -0.22811288 -0.08923788 0.04327131 0.100517265 0.052249722 0.10651157 0.06830685
0.33610383 -0.23819418 0.1385536 -0.20692563 0.31616408 -0.2959637 0.06899791 0.04980328
0.19466606 0.16222225 -0.02898465 0.100546226 0.2025228 -0.27490163 -0.017697146 -0.20688707
-0.08836546 0.2435299 0.17724302 -0.13122354 -0.2012134 0.033164963 -0.31730264 -0.053084645
-0.1071448 -0.06293506 0.115773425 0.1610282 0.28700623 -0.09413682 -0.03433928 -0.26453426
-0.2957748 0.21054979 0.3046156 0.06310458 -0.42973262 0.19604227 -0.27036932 -0.31012017
-0.29120687 0.038759734 0.16868958 0.2957227 -0.29036686 0.23088977 0.31730258 0.16561776
-0.09076495 0.023833055 0.06876367 -0.3063373 -0.14495325 -0.15638477 -0.20144361 -0.08128527
0.33321464 0.28942314 0.21566944 0.1501706 0.12119748 -0.09119492 -0.024633246 0.22852993
0.101632915 0.10453182 0.18012218 -0.04603942 0.06863499 -0.22088745 0.188161 -0.20029232
0.5544063 -0.29052547 0.10243622 -0.1721173 -0.19339094 0.24462588 -0.11707693 0.095126346
0.24346292 0.10557467 0.18801387 -0.19041273 -0.23118159 -0.22691736 -0.026648717 -0.07058118
-0.09529695 -0.32702473 -0.036108416 -0.009636132 0.33838236 0.31470641 -0.31410304 0.12241607
-0.13407502 0.053709943 0.090864256 0.08152311 0.31237134 -0.3279635 0.14619969 0.1411146
0.063424975 -0.16234018 0.24799457 0.31827974 0.27239093 -0.101403676 -0.0713349 0.17866634
-0.20743026 0.21718818 -0.1353587 -0.018086372 -0.13831034 0.24706857 0.02692896 0.04039637
0.083875485 0.17357679 -0.27416834 0.15549889 0.01649681 0.044967134 0.29404697 0.039394848
0.32864794 0.13815272 0.27512768 -0.07875639 0.021498993 -0.11911102 -0.1948937 -0.12674457
-0.26331142 -0.10550871 0.009537978 -0.17356722 -0.18296577 0.07584917 -0.0018011602 0.27759784
-0.18339331 0.32152516 -0.060283944 -0.012236889 -0.16670823 -0.2982073 0.043111335 -0.07998389
-0.08808215 -0.21381377 -0.15748143 0.23722562 -0.29029462 0.082843445 0.016242528 -0.07774543
-0.32505292 -0.13599516 -0.1471286 -0.3243359 0.19669615 0.13409519 -0.18951352 0.09521715
-0.0693114 0.32273996 -0.26644316 -0.12145676 0.22557332 0.19625697 0.19026339 -0.22109851
0.13589655 -0.06498004 0.31350008 0.07421582 0.18786412 -0.14168704 0.11987163 -0.19425759
0.096808255 -0.026340324 -0.19540633 0.29800472 -0.29813105 -0.100359164 0.12903093 -0.23612118
0.22911151 -0.11522874 0.2690188 -0.12299776 0.18704419 0.292239 0.38809842 -0.22546846
0.29841658 0.2223077 0.32115683 -0.24073495 0.3020156 -0.17035612 -0.17377734 0.14026728
0.27570966 0.21831441 0.19217953 -0.16181555 0.28806046 0.022713257 -0.16039555 -0.013470647
0.24171619 -0.20645665 0.26112998 0.03596151 0.0640121 0.10671466 -0.29374003 0.09244428

fc1.bias f4 [128]
00000000: 172b 9ebe 6f93 2fbe 2862 04be 7887 433e
00000010: 8392 aabe 1d43 0cbc 9fed 903e a720 893e
00000020: 94f1 843e 1ae0 9d3e ef87 e3bd e93f 853e
00000030: 20dc 093e 99e9 36be 348d 913e a9b2 a43e
00000040: 4019 8ebe c38c 5dbe cd59 8c3e 306a 203d
00000050: 4bb7 4dbe 6698 8b3e 5bb3 96be a8b1 9a3e
00000060: 2fbe 4cbe fa47 433d 15db efbc 93a0 fabd
00000070: 9c59 19bd 7ad1 7e3e 7f2a a3bd 3558 a73d
00000080: 7741 cb3d 827c 55bd 3d58 eb3d 8b25 8f3e
00000090: cc53 c93d f3bb a53e eb3b c0bc 0a8a 8f3e
000000a0: 9102 82bb c3e3 203e e048 5fbe e1ea 40bc
000000b0: 5259 80be 54a2 47be bb46 86bd fb3e e2bd
000000c0: 407b 93be f5bc 133e 75e9 5e3c f8db b53d
000000d0: 2ddd 0b3d ec02 7ebc 5f6d e63d 5589 933e
000000e0: 50a0 a43e 4f3b 8dbe cccc a3be 3fc9 69bd
000000f0: 9aad 4cbc ca14 3e3e 02c5 243e 818a 093e
00000100: 292d d2bc 7544 623e e6d6 983e fce0 9fbe
00000110: d438 1e3e be9a 6fbe ca4f 5d3e 6958 5bbe
00000120: 2c8d a03e 89c2 c93c 51b4 1ebe aceb 5cbe
00000130: 7b48 efbd 602c 533e c4d8 74be 86ad 9bbe
00000140: 86e3 bf3d 686a 133e 60dc 85be 252f 433e
00000150: 3907 07be 1563 9c3e 8f4b 8cbe 7cba 9dbe
00000160: fc12 d7bd 039e 8ebe 5997 87bd e84f 533e
00000170: f867 95be 3a1e a63d 382d 80be cfb9 39be
00000180: c667 7ebe 6d77 74be b296 ec3d b7f8 49be
00000190: 81ed a5be 1609 0abe d248 5abe 2a45 a13e
000001a0: bd22 513e d255 5ebe c74d 403e e89d 80be
000001b0: 8f0d 6ebe 8a67 aa3e 2ad3 e43d d114 04bd
000001c0: ccd8 e0bd a255 853e 167a 3a3d 7ae1 07bc
000001d0: 03bf a0be 8480 84ba d72b 15be e618 b2bd
000001e0: 2f49 28be 6ca7 99be 28da 343e 50a9 f93d
000001f0: 6329 abbe e03f 14be 1c4d 253e 9d2c 30be
-0.3089225 -0.17146085 -0.12928069 0.19094646 -0.33314905 -0.008560923 0.2830629 0.26782724
0.2596556 0.30835038 -0.11109912 0.26025322 0.13462877 -0.17862548 0.28428042 0.32167557
-0.2775364 -0.21635728 0.27412263 0.03916377 -0.20089452 0.27264708 -0.29433712 0.30213666
-0.19994424 0.047676064 -0.029279271 -0.12237658 -0.037438974 0.24884596 -0.0796709 0.08171121
0.09924596 -0.052120693 0.114914395 0.2795833 0.09830436 0.32369956 -0.023466071 0.28035003
-0.003967591 0.15711884 -0.21805143 -0.0117747495 -0.25068146 -0.19495517 -0.065564595 -0.11047169
-0.2880497 0.1442755 0.013605465 0.08879846 0.034146477 -0.015503626 0.1125133 0.28815714
0.3215356 -0.2758431 -0.31992185 -0.05707669 -0.012492562 0.18562618 0.16090778 0.13431741
-0.0256563 0.22096427 0.29851454 -0.31226337 0.15451366 -0.23398873 0.21612468 -0.21420445
0.31357706 0.024628894 -0.15498473 -0.21574277 -0.116837464 0.20622396 -0.23910815 -0.30405825
0.093695685 0.1439606 -0.26144695 0.19060953 -0.13186349 0.30544344 -0.27401397 -0.3080634
-0.10501668 -0.27854928 -0.06620664 0.2063595 -0.29180884 0.08111234 -0.250345 -0.18137287
-0.24844274 -0.23873682 0.1155218 -0.19723783 -0.32407764 -0.13480029 -0.21316841 0.3149808
0.20423408 -0.21712425 0.1877967 -0.25120473 -0.2324736 0.3328212 0.11173089 -0.032246415
-0.10978851 0.26041895 0.045526586 -0.008293504 -0.3139573 -0.0010109101 -0.14567505 -0.08696155
-0.16434167 -0.30010545 0.17661345 0.12190497 -0.33430013 -0.14477491 0.16142696 -0.17204519

fc2.weight f4 [128, 128]
00000000: 20f8 33bd bca2 2d3d 3f7b c03c a6cf 633d
00000010: cc82 c63c 1da6 1b3c 1990 70bd cc86 733d
00000020: 65b7 41bd 1e3b f6bc 6f2c f1bc 6129 a7bd
00000030: b93f b0bd ea7e 333d 9f15 73bc 4572 3c3d
00000040: c085 b63d adce a93a acc0 f6bc 7651 b2bb
00000050: b5de 82bd 0c35 7abb 924b a53d d7c6 ffbc
00000060: 831f ba3d 5a0b 783d ecf3 1e3d 54c1 9ebd
00000070: f59d b23d 75a0 393d 4a42 9abc 84fa a9bd
00000080: 3e6b 1f3d d5ae 973d 469b 973c 13c8 61bd
00000090: 9621 9f3d 6d41 453d d826 93bc 3524 233d
000000a0: 2171 8dbd 129b 823d 63e8 bbbc 691a ccbc
000000b0: f377 743d 6f2a b23d f2e3 15bd 7810 c13b
000000c0: 2054 a43d d583 e5bc d55f 9abd 978d 333d
000000d0: 493a a5bd 1b88 4e3d 0751 863d b8bc b3bd
000000e0: 5246 163a 31a9 25bd b202 08bc 5693 3abd
000000f0: 5e7f 67bd aa1f 13bd 3161 20bc dcea 9cbd
00000100: 1817 14bd 4d27 81bc ef38 b03d 4699 15bd
00000110: 7741 96bd 8838 c53d 3b60 26bd 53b5 573d
00000120: 66c9 b73d 2fca c13c dd90 17bc fcfe 503c
00000130: ceda 81bd 87b8 783d 71a0 8939 8982 6c3d
00000140: 6869 93bc c2a4 9ebc c8ec 9b3d e3dc b43c
00000150: bb34 87bd d641 b33d 2e2a 823d 4e5c d03c
00000160: b02a 8d3d 2298 01bd ad78 75bd b95b 023d
00000170: ae93 a2bc a980 cebd e266 ccbc 8a5e 7f3d
00000180: 5b2d 63bd 2596 28bd ed8d d63c faec ec3c
00000190: 5456 0abd 7245 c7bc dfb4 5f3d b081 2c3d
000001a0: 3189 9abc 3890 9e3d e9b4 8e3c de7d d73c
000001b0: d25a 17ba c472 0ebd 6d27 0f3d 6035 92bc
000001c0: 5ad3 62bd a94e 8d3d 2a4d 91bb ce71 323d
000001d0: 6718 53bd c1b8 36bc bfca 5b3d bb97 0abb
000001e0: a33e 9bbd fcba 813d b026 a7bd 3c5a e8bc
000001f0: 5b60 06bc b6f1 283d 3948 92bc 0c68 92bd
00000200: d6bf 30bd 71d2 6c3d a896 c3bb 150c 76bc
00000210: 9caf 843c 9b4d 603d b087 8e3d c16a 983c
00000220: a643 b7bc 4ce8 763b 7b53 f13b cad7 933d
00000230: 815c 6e3d b98f 50bd 705c 223d 7b0e 143d
00000240: a6f0 363d 8eea f8bc b81a 313d b741 38bc
00000250: e854 23bd 8e1c d9bc d9ce 9f3d e7cf 763c
00000260: 20ca 493d 6cc0 663d f3d1 a2bb 9716 913d
00000270: eeb5 0b3d 20b9 733c a86b 683d 64df d83c
00000280: 5f10 5bbc 8ec2 85bd 204a 8bbc e33e 0dbd
00000290: 5cf9 9bbd 9f46 f6bc 33f9 3ebd 7a78 5e3d
000002a0: f49a 1a3d 46e5 91bc a76b b6bd b71c 8c3d
000002b0: d144 a53d bf98 b4bc 6473 873d 394e ea3c
000002c0: 4406 50bc d5f5 20bc 1ee9 a1bd 25f5 1c3d
000002d0: 91b4 503d 61cf bdbd e641 2dbc ce6e 3fbd
000002e0: 694c 883d ea0c cb3b 28c8 95bd ec37 083d
000002f0: f6e7 92bd 4538 03bd eced c53c 94d0 a0bd
00000300: 9257 873d 5508 50bc dc2d b5bd 4474 97bd
00000310: 331f 19bd 6514 023c 21e3 1fbd 9a31 46bc
00000320: e46a 943d 26b3 7c3d aa30 39bd 86ae 8fbd
00000330: 5c12 813d 0418 6a3d fb3f 463d e58c 35bd
00000340: 4eda 263d a8d6 ac3d 5dc5 51bd 34ef 9f3d
00000350: 50f7 14bc 8698 89bd 4357 733d 1544 3ebd
00000360: be4a 9dbd 48b4 2a3d 94f0 4e3d d0a0 893d
00000370: 3f30 a9bc 097e d0bc 50cc be3c ea4c 923d
00000380: cae6 80bd e782 b7bd 78cf 093c 01c2 29bd
00000390: 385c fb3c 54e5 163d 63f1 a4bc e9be 543c
000003a0: c7a7 d7bc 98d9 a83c 2148 62bc 910e 833b
000003b0: c35e 86bb b3e3 da3b ebc8 50bd 13e7 ccbd
000003c0: 4cb3 433d fd8e 793d 2602 9dbc 79ae d4bc
000003d0: c1e3 233d 06d2 ed3c fb8a 5e3d dff3 d23c
000003e0: 30b9 dbbc 7421 513d 40dd 2e3d 999a 6d3c
000003f0: c4dd c8bc ebc3 e43c cf54 c3bc 2d85 913d
-0.043937802 0.042391524 0.023496268 0.05561795 0.02423229 0.009500054 -0.058731172 0.059454724
-0.04729404 -0.030057486 -0.029440133 -0.08162189 -0.08605904 0.043822207 -0.014836698 0.046007413
0.089122295 0.0012955271 -0.03012117 -0.00544184 -0.06390134 -0.003817859 0.080710545 -0.031222744
0.09088042 0.0605577 0.03880684 -0.07751718 0.08721534 0.04531904 -0.018830437 -0.08299735
0.038920633 0.074063934 0.018506657 -0.055122446 0.07770078 0.048158098 -0.017962858 0.03982945
-0.06906343 0.063772336 -0.022937959 -0.024914937 0.059684705 0.086995 -0.03659434 0.005891856
0.08023858 -0.028016964 -0.0753781 0.043836202 -0.08067758 0.05042277 0.065584235 -0.087762296
0.00057325244 -0.040444557 -0.008301424 -0.045550667 -0.05651795 -0.03591887 -0.009788797 -0.07661983
-0.036154836 -0.01576581 0.08604609 -0.036523126 -0.07336705 0.09629923 -0.040619116 0.05266316
0.089739606 0.023655979 -0.009250847 0.0127561055 -0.06340562 0.060722854 0.00026250214 0.057741676
-0.017994598 -0.019365672 0.07613522 0.022077983 -0.066018544 0.087527916 0.063557014 0.02543464
0.068929076 -0.031639226 -0.05992954 0.031825755 -0.01984581 -0.10083134 -0.024951402 0.06234602
-0.055463176 -0.041158814 0.026190722 0.028921593 -0.033773735 -0.024325106 0.05461585 0.042115867
-0.018864246 0.07742351 0.017420249 0.026305135 -0.0005773726 -0.034777418 0.03494971 -0.017847717
-0.05537734 0.06899769 -0.0044342475 0.043565564 -0.051536944 -0.011152447 0.05366015 -0.0021147567
-0.075803064 0.063344926 -0.08161676 -0.02836334 -0.008201684 0.04124614 -0.017856704 -0.071487516
-0.0431517 0.05781788 -0.0059688874 -0.015017529 0.016197018 0.05476151 0.06959474 0.018605592
-0.022371124 0.003767508 0.007364688 0.07218893 0.058193687 -0.050918315 0.039638937 0.036146622
0.044663094 -0.030385282 0.04323837 -0.011246136 -0.039875895 -0.026502874 0.07803125 0.015064216
0.049265027 0.05633585 -0.0049688756 0.07084387 0.03410905 0.01487568 0.056743294 0.026473708
-0.013370602 -0.06531249 -0.017003119 -0.0344838 -0.07615921 -0.030062972 -0.046624374 0.054314114
0.03774543 -0.017809521 -0.08907252 0.068414144 0.08069766 -0.022045491 0.06613806 0.028601753
-0.012696806 -0.009824236 -0.07905792 0.038319726 0.05095345 -0.0926807 -0.010574793 -0.04673653
0.06655199 0.006196608 -0.073135674 0.033256456 -0.07173149 -0.032036085 0.024161302 -0.07852283
0.066084996 -0.012697299 -0.088466376 -0.07395223 -0.03738327 0.007939433 -0.039034966 -0.012096787
0.0724695 0.061694287 -0.045212425 -0.070157096 0.0630233 0.05715181 0.04840086 -0.04432382
0.040735535 0.0843938 -0.05121361 0.07809296 -0.009092167 -0.06718545 0.05940939 -0.046451647
-0.076802716 0.041675836 0.050522402 0.06720126 -0.020652888 -0.025450723 0.023290783 0.071435764
-0.062940195 -0.089605145 0.008411281 -0.041444782 0.030683622 0.036839798 -0.020134633 0.01298497
-0.02632512 0.02061157 -0.013811142 0.003999539 -0.004100652 0.006679976 -0.05097286 -0.100050114
0.047778413 0.06092738 -0.019166064 -0.025962101 0.040012125 0.029030811 0.05433176 0.025751052
-0.026821703 0.051057294 0.04269147 0.014502191 -0.024519809 0.027925452 -0.02384415 0.071054794

fc2.bias f4 [128]
00000000: 5e83 06bd 2824 a83d c392 603c cac0 3b3d
00000010: 8094 153d 2239 113d 6129 abbd 24c9 a8bd
00000020: f4ef 9b3d 8c11 86bc 4d4d c3bc 5d91 503d
00000030: 99ae a5bd 36b7 a6bc 284d c73c 11c7 4f3d
00000040: 9274 3f3d 0a1e 59bd eb38 aebd ace2 8bbc
00000050: bb49 a33d a743 15bd bbc1 8d3d 6e01 ca3c
00000060: 2560 8c3d 6c48 05bd 646d b0bc d2c9 9bbc
00000070: 363b b63c 1dc5 8d3d fbf3 863d a288 2b3d
00000080: b1a5 12bd 582b 983b e283 e3bc 006a bebd
00000090: 5ce0 b13d ffc5 a03d c667 babd 1f44 d4bc
000000a0: b756 ef3c 166b f7bc 93af 5b3d 5e75 8abd
000000b0: 6063 a33d 70b3 483d 27e4 963d a7e7 7f3d
000000c0: b8fe f03c 1094 c5bc 2eaa 2abd 1aa6 09bd
000000d0: c579 65bb ce83 cf3c 4f1f d3bc 9cdd 89bd
000000e0: 0dd3 623c 356e c0bc 3536 b9bd 79c8 2fbd
000000f0: 3815 b03d 7eb9 4e3a e395 c5bc 5183 1cbd
00000100: cc47 873c d7c9 153b 2c67 403d beea 8b3d
00000110: 31c2 933c 1c09 0fbd 92cf de3c a7cf aabc
00000120: 2f4a 61bd e3af 8a3d 3067 6dbd 7461 eb3c
00000130: 397f a6bc 0e36 613d ec9b a83d e64c 153d
00000140: eb41 16bd ba97 6c3d 741e 813c a5af a73d
00000150: 077b 97bd a1a9 8a3d adac 893d 84cc 26bd
00000160: a1af 423d f62a aebd 368f b0bd ea09 72bd
00000170: faa3 9ebd df67 b83c 3ae6 a43a f25e 6d3c
00000180: fd63 903d e4fa 033d 6d99 423d ed92 15bd
00000190: 234d be3a dec4 a03b 564b 92bc cfa8 003d
000001a0: 54dd f1bc 8584 c53c 30b7 44bd 01ed 483d
000001b0: a52d 153d fe42 40bd 729b b13c 17b3 cb3c
000001c0: 73e2 9f3d 9dfb 58bd 68fc cd3c 4a01 77bd
000001d0: 245e 93bd a25a 43bd e2cd debc b059 1abb
000001e0: e620 6a3b bb36 503c 8444 623c 1f7e a93d
000001f0: a8b5 6f3d 7545 b2bd baa3 b33c dc44 2ebd
-0.032840125 0.08210021 0.013706866 0.045838155 0.036518574 0.035454877 -0.08357502 -0.082414895
0.07614127 -0.016365789 -0.02384057 0.05091988 -0.080899425 -0.020351034 0.024328783 0.050726954
0.04674203 -0.053007163 -0.0850695 -0.017075859 0.07973047 -0.03644147 0.06921717 0.024658885
0.068542756 -0.03253977 -0.021536537 -0.019017134 0.02224503 0.06922362 0.06589504 0.04187835
-0.035802547 0.004643839 -0.027772848 -0.09297562 0.08685371 0.07850265 -0.091018245 -0.025911389
0.029216154 -0.03020243 0.053634237 -0.06760667 0.07977939 0.04899925 0.07367735 0.06247678
0.029418334 -0.024118453 -0.041666202 -0.033605672 -0.0035015207 0.025331404 -0.025771765 -0.06731722
0.013844264 -0.02349005 -0.09043542 -0.042915795 0.08597797 0.0007885917 -0.024119323 -0.03821117
0.016513728 0.0022855902 0.046973392 0.06831883 0.018036934 -0.034920797 0.027198587 -0.02085097
-0.055002388 0.06771829 -0.057959735 0.028732993 -0.020324336 0.05498319 0.08232865 0.03645029
-0.036683958 0.057761885 0.015761591 0.081877984 -0.073965125 0.067706354 0.067223884 -0.040722385
0.047530774 -0.08504288 -0.08621065 -0.059091486 -0.0774612 0.022510467 0.001258082 0.014487969
0.07050321 0.03222169 0.0475096 -0.036517072 0.0014518838 0.004906281 -0.017858189 0.03141099
-0.029524483 0.024111042 -0.048026264 0.04905415 0.036420483 -0.04693889 0.021680567 0.02486567
0.07806864 -0.052974332 0.02514477 -0.060303964 -0.0719569 -0.047693856 -0.027197782 -0.0023551993
0.0035725175 0.012708361 0.013810281 0.08276009 0.05852285 -0.08704654 0.021928657 -0.04254614

fc3.weight f4 [11, 128]
00000000: c3b5 b1bd a080 e73c 93dd 8a3d 6b1f 843d
00000010: 95a9 d13b e34d 473d 8ef0 7e3d cf3a 51bc
00000020: 4fad 713d b10a 94bd 60e6 9fbd f4fe 68bd
00000030: baf4 743b 89e7 a83d b8d5 75b9 2826 b8bc
00000040: 6dcd 5cbd 0533 b13d 753a a6bd 0d6a 65bd
00000050: bc58 143d 1b2b 7b3d cc90 b7bd 09e4 cdbc
00000060: e74e 2b3d e6dd 093c 8266 d6ba fd2c 56bc
00000070: 2dea 90bd c607 553d 9550 a43d 87ad 02bd
00000080: fa2f 163d 3578 78bd 52a3 60bd 6082 48bc
00000090: 01fb 9a3d 4872 77bc 4bf3 6cbc 5110 9cbc
000000a0: 7f2a c73c 2829 9fbb 8c01 d4bb 9b3e 9b3c
000000b0: fe44 1b3d 7fff 2c3c b2c8 9d3d b7cf 04bd
000000c0: d6c1 613d b3f6 6a3d 7435 86bd 63d0 2bbd
000000d0: d81a 1e3b 952c 4cbc ef19 a6bb 393a 46ba
000000e0: fe6d ab3d 9cbc e53b e49b 463c 3e47 d73c
000000f0: 2a5a 083d e433 25bc 6a3d 3fbd 698e 9fbd
00000100: a88b b4bb 6910 60bd c00d 5dbd 1e97 06bc
00000110: 76b7 113c e37c c3bb 44dd db3c 6ab7 373b
00000120: 32ee 413d 5d48 a93d b4cc 93bc 507a 913d
00000130: bc69 72bd 2e86 92bb 4d1f 8c3d d963 893d
00000140: a077 70bd 89e4 963d 23e7 d3bc 209a 42bd
00000150: fb74 943d ae50 793d ff33 b33d b44a 1bbd
00000160: e05c 8abd 42e2 c33c 8acd 97bd 8895 67bd
00000170: 4607 0d3d f21a 4a3d 1464 86bd d486 86bd
00000180: 1ef8 433d 5f61 5d3d 1927 73bd 32b6 91bc
00000190: 9a89 f5b9 e472 8cbd 3184 2c3c 6e12 9ebd
000001a0: 5ace cb3b 2ec4 023d 61a1 893d 8c8b cbbb
000001b0: 589d 8dbd 5f2f 663d 73e9 8f3d a7c4 1a3d
000001c0: 150a a53b fbd0 4e3d f7c2 923d f052 08bc
000001d0: a28e e7bc 9d38 a43d f55c 8c3d 2d92 ec3c
000001e0: 3ee0 b1bd 872a 4c3d 7f89 7cba 043f 9e3d
000001f0: a044 98bd 6f19 a63d 7896 73bd d978 50bd
00000200: 9ee7 8cbc c6c0 263d b1b2 aa3d 0405 873d
00000210: 0d47 533c a7f0 f83b 78f0 4b3d 020f 023d
00000220: 1310 1e3d ef48 9bbd c3fb b7bd bed2 003a
00000230: 3cf4 b3bd 8661 143d fe02 7c3d 84f7 baba
00000240: 50ff 0abd a8b8 983d e247 89bd d3cc 2abd
00000250: 38c6 cbbc d904 d43c 312a 9cbd dd0b b8bd
00000260: 01e7 913a f29d abbd 0e45 1cbc ad29 b0bc
00000270: 293a 423d 3261 a33d b23a 8dbd d2e4 8fbd
00000280: 457f 063d 190d b5bc 4a39 1b3d 7cae 6fbc
00000290: 450f 593d d9de 543b a041 533d 6735 1bbc
000002a0: 0440 aa3c 6d0c 813d 0a10 88bd 582a 843d
000002b0: 4670 bdbc a4e0 fb3b f8e8 ddbc 8aa9 afbd
000002c0: 5d3c 49bb c0d9 363c 734f 85bd 92ac 9d3b
000002d0: 7c3c 7c3d 86cb 33bd 0902 c23c f7be b03d
000002e0: 9f83 7d3d 84ec a8bd 8619 48bd a982 903d
000002f0: ee6b a63d 312b dbbc 0158 48bc 4da1 8bbb
00000300: fdd2 613d d5d3 d73c 5fbe 1fbd 30c0 243d
00000310: 3cd7 b43d df83 8d3d a485 b9bd 2721 3cbd
00000320: bfee 80bd fa7f 3e3d 42be 55bd 53d5 99bd
00000330: d078 223c dfd3 6e3c 9e0c e33a d896 603d
00000340: 56c1 873d 25e8 ac3d fccd abba ffd9 2ebd
00000350: dea7 a43d 92a6 b4bd 686b 57bd 05aa 193d
00000360: 6b49 83bd b3fa 49bd 0cc7 643d 98eb 3bbd
00000370: 85bf 343d 2ccb 803d e583 09bd c6a9 853d
00000380: a5ce 0f3b 4db5 bc3c de00 9f3d ac17 b43d
00000390: 6d08 31bc 76a9 8dbb 4e2b 9b3a 59c4 f6b9
000003a0: a075 85bd 59b4 f03c 289a 943d 02aa 873d
000003b0: 7cb4 993d f84c a73d aad1 683c 469f 59bd
000003c0: bd73 77bd 6a44 9e3d d033 a33d b173 4dbd
000003d0: c614 5a3c 046a 85bd e19b c03b 814d 96bd
000003e0: e117 85bc 0910 1f3d 4729 7fbd ab81 c93b
000003f0: c5b7 85bc de67 593d 30c3 30ba 0144 9e3d
-0.086772464 0.028259575 0.06780543 0.06451305 0.0063983896 0.048658263 0.06224113 -0.012770369
0.05900317 -0.07228602 -0.078076124 -0.056883767 0.0037377314 0.08247287 -0.00023444637 -0.022479132
-0.053906847 0.08652309 -0.081166185 -0.05600934 0.036217436 0.061320405 -0.08963165 -0.02513315
0.041823294 0.008414721 -0.0016357454 -0.0130722495 -0.070759155 0.052009366 0.08023182 -0.03190377
0.036666848 -0.060661513 -0.054843254 -0.012238115 0.075674064 -0.01510293 -0.014462302 -0.019050749
0.024312256 -0.004857201 -0.006469911 0.018950751 0.037907593 0.010558962 0.07704295 -0.032424655
0.055116497 0.057364177 -0.06553164 -0.04194678 0.0024124887 -0.012461801 -0.0050690095 -0.00075617764
0.08370589 0.0070110094 0.012122128 0.026279088 0.033289112 -0.0100831725 -0.04668943 -0.077908345
-0.0055098124 -0.05470315 -0.05396819 -0.00821474 0.008893838 -0.0059658154 0.026838906 0.0028032907
0.0473463 0.08265755 -0.018041946 0.071034074 -0.059182867 -0.004471562 0.06841908 0.067084976
-0.058707833 0.07367808 -0.02586705 -0.047510266 0.07248875 0.060867958 0.08750152 -0.03791304
-0.06755996 0.0239116 -0.0741225 -0.05653909 0.034430765 0.049342103 -0.06562057 -0.06568685
0.047844045 0.05404794 -0.05936346 -0.017787073 -0.00046832563 -0.06857851 0.010529564 -0.07718359
0.0062196674 0.031925373 0.06720234 -0.0062117036 -0.069147766 0.05619752 0.07026949 0.0377852
0.0050366023 0.050492268 0.07166093 -0.008320555 -0.028266255 0.080186106 0.06853668 0.028878296
-0.08685349 0.049845245 -0.00096335256 0.07726863 -0.07434964 0.0811032 -0.05946967 -0.0508965
-0.017200287 0.040711187 0.08334864 0.065927535 0.012895358 0.0075970474 0.049789876 0.031752594
0.03858955 -0.0758227 -0.089835666 0.00049142155 -0.087868184 0.036225818 0.06152629 -0.0014264439
-0.03393489 0.074570954 -0.06703164 -0.04169924 -0.024874792 0.025881218 -0.07625235 -0.08986638
0.0011131467 -0.08379735 -0.009537948 -0.021504248 0.047418747 0.07977523 -0.06895961 -0.07026066
0.032836217 -0.022100972 0.037896432 -0.014629003 0.052993078 0.003248146 0.051576257 -0.009473181
0.020782478 0.06301198 -0.06643684 0.06453389 -0.023124825 0.0076866914 -0.027088627 -0.08577259
-0.0030706145 0.011160314 -0.06509294 0.0048118317 0.06158112 -0.043895267 0.023682611 0.08630174
0.0618931 -0.08248237 -0.048852466 0.070561714 0.08126055 -0.026753994 -0.012228013 -0.004261172
0.055132855 0.026346127 -0.03899991 0.040222347 0.08830115 0.06909918 -0.09058693 -0.045930054
-0.06295537 0.046508767 -0.052183397 -0.075113915 0.009916499 0.014576881 0.0017322486 0.054831356
0.06628673 0.084427156 -0.0013107653 -0.042688366 0.080398306 -0.08820833 -0.052592665 0.03751566
-0.06410488 -0.04931135 0.05585389 -0.045878977 0.04412796 0.06288752 -0.03357305 0.06526522
0.0021943238 0.02303567 0.07763837 0.087935776 -0.0108052315 -0.00432318 0.0011838467 -0.00047067067
-0.06516576 0.029382871 0.072559655 0.06624223 0.07505128 0.081689775 0.014210144 -0.05313041
-0.06041311 0.07727893 0.07968867 -0.05015916 0.013310617 -0.065143615 0.005877957 -0.073390014
-0.016246738 0.03883365 -0.062295225 0.006149491 -0.01632298 0.05307757 -0.00067429524 0.077278145

fc3.bias f4 [11]
00000000: f9d9 4fbd 9ba2 093d 7ed4 633d 94d1 2c3d
00000010: c3db 233d 0720 8f3d c64d a2bc a03d 88bd
00000020: 463a 943c 8516 9c3d 4ba1 753d
-0.050744984 0.03360234 0.05562257 0.042192057 0.040004503 0.069885306 -0.019812476 -0.06652379
0.018094193 0.07621483 0.059968274
